…
 Layer (type)                   Output Shape         Param #     Connected to                     
==================================================================================================
 input_2 (InputLayer)           [(None, 104)]        0           []                               
                                                                                                  
 input_3 (InputLayer)           [(None, 86)]         0           []                               
                                                                                                  
 embedding (Embedding)          (None, 104, 384)     1456896     ['input_2[0][0]']                
                                                                                                  
 in_rsts (Embedding)            (None, 86, 384)      33024       ['input_3[0][0]']                
                                                                                                  
 dense (Dense)                  (None, 104, 256)     98560       ['embedding[0][0]']              
                                                                                                  
 dense_2 (Dense)                (None, 86, 256)      98560       ['in_rsts[0][0]']                
                                                                                                  
 tf.math.not_equal (TFOpLambda)  (None, 104)         0           ['input_2[0][0]']                
                                                                                                  
 dense_1 (Dense)                (None, 104, 128)     32896       ['dense[0][0]']                  
                                                                                                  
 dense_3 (Dense)                (None, 86, 128)      32896       ['dense_2[0][0]']                
                                                                                                  
 tf.cast (TFOpLambda)           (None, 104)          0           ['tf.math.not_equal[0][0]']      
                                                                                                  
 word_emb (Lambda)              (None, 104, 128)     0           ['dense_1[0][0]']                
                                                                                                  
 rest_emb (Lambda)              (None, 86, 128)      0           ['dense_3[0][0]']                
                                                                                                  
 tf.expand_dims (TFOpLambda)    (None, 104, 1)       0           ['tf.cast[0][0]']                
                                                                                                  
 lambda (Lambda)                (None, 104, 86)      0           ['word_emb[0][0]',               
                                                                  'rest_emb[0][0]']               
                                                                                                  
 tf.tile (TFOpLambda)           (None, 104, 86)      0           ['tf.expand_dims[0][0]']         
                                                                                                  
 lambda_1 (Lambda)              (None, 104, 86)      0           ['lambda[0][0]',                 
                                                                  'tf.tile[0][0]']                
                                                                                                  
 dotprod (Activation)           (None, 104, 86)      0           ['lambda_1[0][0]']               
                                                                                                  
 dropout_1 (Dropout)            (None, 104, 86)      0           ['dotprod[0][0]']                
                                                                                                  
 sum (Lambda)                   (None, 86)           0           ['dropout_1[0][0]']              
                                                                                                  
 out (Activation)               (None, 86)           0           ['sum[0][0]']                    
                                                                                                  
==================================================================================================
Total params: 1,752,832
Trainable params: 1,752,832
Non-trainable params: 0
__________________________________________________________________________________________________
…
 Layer (type)                   Output Shape         Param #     Connected to                     
==================================================================================================
 input_2 (InputLayer)           [(None, 112)]        0           []                               
                                                                                                  
 input_3 (InputLayer)           [(None, 134)]        0           []                               
                                                                                                  
 embedding (Embedding)          (None, 112, 384)     1857024     ['input_2[0][0]']                
                                                                                                  
 in_rsts (Embedding)            (None, 134, 384)     51456       ['input_3[0][0]']                
                                                                                                  
 dense (Dense)                  (None, 112, 256)     98560       ['embedding[0][0]']              
                                                                                                  
 dense_2 (Dense)                (None, 134, 256)     98560       ['in_rsts[0][0]']                
                                                                                                  
 tf.math.not_equal (TFOpLambda)  (None, 112)         0           ['input_2[0][0]']                
                                                                                                  
 dense_1 (Dense)                (None, 112, 128)     32896       ['dense[0][0]']                  
                                                                                                  
 dense_3 (Dense)                (None, 134, 128)     32896       ['dense_2[0][0]']                
                                                                                                  
 tf.cast (TFOpLambda)           (None, 112)          0           ['tf.math.not_equal[0][0]']      
                                                                                                  
  0%|          | 0/50 [00:00<?, ?it/s, correct=88.20%, skipped=8.22%] word_emb (Lambda)              (None, 112, 128)     0           ['dense_1[0][0]']                
                                                                                                  
 rest_emb (Lambda)              (None, 134, 128)     0           ['dense_3[0][0]']                
                                                                                                  
 tf.expand_dims (TFOpLambda)    (None, 112, 1)       0           ['tf.cast[0][0]']                
                                                                                                  
 lambda (Lambda)                (None, 112, 134)     0           ['word_emb[0][0]',               
                                                                  'rest_emb[0][0]']               
                                                                                                  
 tf.tile (TFOpLambda)           (None, 112, 134)     0           ['tf.expand_dims[0][0]']         
                                                                                                  
 lambda_1 (Lambda)              (None, 112, 134)     0           ['lambda[0][0]',                 
                                                                  'tf.tile[0][0]']                
                                                                                                  
 dotprod (Activation)           (None, 112, 134)     0           ['lambda_1[0][0]']               
                                                                                                  
 dropout_1 (Dropout)            (None, 112, 134)     0           ['dotprod[0][0]']                
                                                                                                  
 sum (Lambda)                   (None, 134)          0           ['dropout_1[0][0]']              
                                                                                                  
 out (Activation)               (None, 134)          0           ['sum[0][0]']                    
                                                                                                  
==================================================================================================
Total params: 2,171,392
Trainable params: 2,171,392
Non-trainable params: 0
__________________________________________________________________________________________________
…
 Layer (type)                   Output Shape         Param #     Connected to                     
==================================================================================================
 input_2 (InputLayer)           [(None, 104)]        0           []                               
                                                                                                  
 input_3 (InputLayer)           [(None, 75)]         0           []                               
                                                                                                  
 embedding (Embedding)          (None, 104, 384)     1490688     ['input_2[0][0]']                
                                                                                                  
 in_rsts (Embedding)            (None, 75, 384)      28800       ['input_3[0][0]']                
                                                                                                  
 dense (Dense)                  (None, 104, 256)     98560       ['embedding[0][0]']              
                                                                                                  
 dense_2 (Dense)                (None, 75, 256)      98560       ['in_rsts[0][0]']                
                                                                                                  
 tf.math.not_equal (TFOpLambda)  (None, 104)         0           ['input_2[0][0]']                
                                                                                                  
 dense_1 (Dense)                (None, 104, 128)     32896       ['dense[0][0]']                  
                                                                                                  
 dense_3 (Dense)                (None, 75, 128)      32896       ['dense_2[0][0]']                
                                                                                                  
 tf.cast (TFOpLambda)           (None, 104)          0           ['tf.math.not_equal[0][0]']      
                                                                                                  
 word_emb (Lambda)              (None, 104, 128)     0           ['dense_1[0][0]']                
                                                                                                  
 rest_emb (Lambda)              (None, 75, 128)      0           ['dense_3[0][0]']                
                                                                                                  
 tf.expand_dims (TFOpLambda)    (None, 104, 1)       0           ['tf.cast[0][0]']                
                                                                                                  
 lambda (Lambda)                (None, 104, 75)      0           ['word_emb[0][0]',               
                                                                  'rest_emb[0][0]']               
                                                                                                  
 tf.tile (TFOpLambda)           (None, 104, 75)      0           ['tf.expand_dims[0][0]']         
                                                                                                  
 lambda_1 (Lambda)              (None, 104, 75)      0           ['lambda[0][0]',                 
                                                                  'tf.tile[0][0]']                
                                                                                                  
 dotprod (Activation)           (None, 104, 75)      0           ['lambda_1[0][0]']               
                                                                                                  
 dropout_1 (Dropout)            (None, 104, 75)      0           ['dotprod[0][0]']                
                                                                                                  
 sum (Lambda)                   (None, 75)           0           ['dropout_1[0][0]']              
                                                                                                  
 out (Activation)               (None, 75)           0           ['sum[0][0]']                    
                                                                                                  
==================================================================================================
Total params: 1,782,400
Trainable params: 1,782,400
Non-trainable params: 0
__________________________________________________________________________________________________
…
 Layer (type)                   Output Shape         Param #     Connected to                     
==================================================================================================
 input_2 (InputLayer)           [(None, 110)]        0           []                               
                                                                                                  
 input_3 (InputLayer)           [(None, 52)]         0           []                               
                                                                                                  
 embedding (Embedding)          (None, 110, 384)     1206144     ['input_2[0][0]']                
                                                                                                  
 in_rsts (Embedding)            (None, 52, 384)      19968       ['input_3[0][0]']                
                                                                                                  
 dense (Dense)                  (None, 110, 256)     98560       ['embedding[0][0]']              
                                                                                                  
 dense_2 (Dense)                (None, 52, 256)      98560       ['in_rsts[0][0]']                
                                                                                                  
 tf.math.not_equal (TFOpLambda)  (None, 110)         0           ['input_2[0][0]']                
                                                                                                  
 dense_1 (Dense)                (None, 110, 128)     32896       ['dense[0][0]']                  
                                                                                                  
 dense_3 (Dense)                (None, 52, 128)      32896       ['dense_2[0][0]']                
                                                                                                  
 tf.cast (TFOpLambda)           (None, 110)          0           ['tf.math.not_equal[0][0]']      
                                                                                                  
 word_emb (Lambda)              (None, 110, 128)     0           ['dense_1[0][0]']                
                                                                                                  
 rest_emb (Lambda)              (None, 52, 128)      0           ['dense_3[0][0]']                
                                                                                                  
 tf.expand_dims (TFOpLambda)    (None, 110, 1)       0           ['tf.cast[0][0]']                
                                                                                                  
 lambda (Lambda)                (None, 110, 52)      0           ['word_emb[0][0]',               
                                                                  'rest_emb[0][0]']               
                                                                                                  
 tf.tile (TFOpLambda)           (None, 110, 52)      0           ['tf.expand_dims[0][0]']         
                                                                                                  
 lambda_1 (Lambda)              (None, 110, 52)      0           ['lambda[0][0]',                 
                                                                  'tf.tile[0][0]']                
                                                                                                  
 dotprod (Activation)           (None, 110, 52)      0           ['lambda_1[0][0]']               
                                                                                                  
 dropout_1 (Dropout)            (None, 110, 52)      0           ['dotprod[0][0]']                
                                                                                                  
 sum (Lambda)                   (None, 52)           0           ['dropout_1[0][0]']              
                                                                                                  
 out (Activation)               (None, 52)           0           ['sum[0][0]']                    
                                                                                                  
==================================================================================================
Total params: 1,489,024
Trainable params: 1,489,024
Non-trainable params: 0
__________________________________________________________________________________________________
…
 Layer (type)                   Output Shape         Param #     Connected to                     
==================================================================================================
 input_2 (InputLayer)           [(None, 104)]        0           []                               
                                                                                                  
 input_3 (InputLayer)           [(None, 63)]         0           []                               
                                                                                                  
 embedding (Embedding)          (None, 104, 384)     1105152     ['input_2[0][0]']                
                                                                                                  
 in_rsts (Embedding)            (None, 63, 384)      24192       ['input_3[0][0]']                
                                                                                                  
 dense (Dense)                  (None, 104, 256)     98560       ['embedding[0][0]']              
                                                                                                  
 dense_2 (Dense)                (None, 63, 256)      98560       ['in_rsts[0][0]']                
                                                                                                  
 tf.math.not_equal (TFOpLambda)  (None, 104)         0           ['input_2[0][0]']                
                                                                                                  
 dense_1 (Dense)                (None, 104, 128)     32896       ['dense[0][0]']                  
                                                                                                  
 dense_3 (Dense)                (None, 63, 128)      32896       ['dense_2[0][0]']                
                                                                                                  
 tf.cast (TFOpLambda)           (None, 104)          0           ['tf.math.not_equal[0][0]']      
                                                                                                  
 word_emb (Lambda)              (None, 104, 128)     0           ['dense_1[0][0]']                
                                                                                                  
 rest_emb (Lambda)              (None, 63, 128)      0           ['dense_3[0][0]']                
                                                                                                  
 tf.expand_dims (TFOpLambda)    (None, 104, 1)       0           ['tf.cast[0][0]']                
                                                                                                  
 lambda (Lambda)                (None, 104, 63)      0           ['word_emb[0][0]',               
                                                                  'rest_emb[0][0]']               
                                                                                                  
 tf.tile (TFOpLambda)           (None, 104, 63)      0           ['tf.expand_dims[0][0]']         
                                                                                                  
 lambda_1 (Lambda)              (None, 104, 63)      0           ['lambda[0][0]',                 
                                                                  'tf.tile[0][0]']                
                                                                                                  
 dotprod (Activation)           (None, 104, 63)      0           ['lambda_1[0][0]']               
                                                                                                  
 dropout_1 (Dropout)            (None, 104, 63)      0           ['dotprod[0][0]']                
                                                                                                  
 sum (Lambda)                   (None, 63)           0           ['dropout_1[0][0]']              
                                                                                                  
 out (Activation)               (None, 63)           0           ['sum[0][0]']                    
                                                                                                  
==================================================================================================
Total params: 1,392,256
Trainable params: 1,392,256
Non-trainable params: 0
__________________________________________________________________________________________________
None
[92m[INFO] Best epoch number: 87[0m
Model: "model"
_________________________________________________________________
 Layer (type)                Output Shape              Param #   
=================================================================
 input_1 (InputLayer)        [(None,)]                 0         
                                                                 
[92m[INFO] Model already trained. Loading weights...[0m
 USEM (KerasLayer)           (None, 512)               68927232  
                                                                 
 dropout (Dropout)           (None, 512)               0         
                                                                 
 out (Dense)                 (None, 149)               76437     
                                                                 
=================================================================
Total params: 69,003,669
Trainable params: 69,003,669
Non-trainable params: 0
_________________________________________________________________
None
[92m[INFO] Best epoch number: 53[0m
[92m[INFO] Model already trained. Loading weights...[0m
[92m       loss  Precision@1  Precision@5  ...      F1@1      F1@5     F1@10
…
 Layer (type)                   Output Shape         Param #     Connected to                     
==================================================================================================
 input_2 (InputLayer)           [(None, 162)]        0           []                               
                                                                                                  
 input_3 (InputLayer)           [(None, 149)]        0           []                               
                                                                                                  
 embedding (Embedding)          (None, 162, 384)     926976      ['input_2[0][0]']                
                                                                                                  
 in_rsts (Embedding)            (None, 149, 384)     57216       ['input_3[0][0]']                
                                                                                                  
 dense (Dense)                  (None, 162, 256)     98560       ['embedding[0][0]']              
                                                                                                  
 dense_2 (Dense)                (None, 149, 256)     98560       ['in_rsts[0][0]']                
                                                                                                  
 tf.math.not_equal (TFOpLambda)  (None, 162)         0           ['input_2[0][0]']                
                                                                                                  
 dense_1 (Dense)                (None, 162, 128)     32896       ['dense[0][0]']                  
                                                                                                  
 dense_3 (Dense)                (None, 149, 128)     32896       ['dense_2[0][0]']                
                                                                                                  
 tf.cast (TFOpLambda)           (None, 162)          0           ['tf.math.not_equal[0][0]']      
                                                                                                  
 word_emb (Lambda)              (None, 162, 128)     0           ['dense_1[0][0]']                
                                                                                                  
 rest_emb (Lambda)              (None, 149, 128)     0           ['dense_3[0][0]']                
                                                                                                  
 tf.expand_dims (TFOpLambda)    (None, 162, 1)       0           ['tf.cast[0][0]']                
                                                                                                  
 lambda (Lambda)                (None, 162, 149)     0           ['word_emb[0][0]',               
                                                                  'rest_emb[0][0]']               
                                                                                                  
 tf.tile (TFOpLambda)           (None, 162, 149)     0           ['tf.expand_dims[0][0]']         
                                                                                                  
 lambda_1 (Lambda)              (None, 162, 149)     0           ['lambda[0][0]',                 
                                                                  'tf.tile[0][0]']                
                                                                                                  
 dotprod (Activation)           (None, 162, 149)     0           ['lambda_1[0][0]']               
                                                                                                  
 dropout_1 (Dropout)            (None, 162, 149)     0           ['dotprod[0][0]']                
                                                                                                  
 sum (Lambda)                   (None, 149)          0           ['dropout_1[0][0]']              
                                                                                                  
 out (Activation)               (None, 149)          0           ['sum[0][0]']                    
                                                                                                  
==================================================================================================
Total params: 1,247,104
Trainable params: 1,247,104
Non-trainable params: 0
__________________________________________________________________________________________________
…
 Layer (type)                   Output Shape         Param #     Connected to                     
==================================================================================================
 input_2 (InputLayer)           [(None, 172)]        0           []                               
                                                                                                  
 input_3 (InputLayer)           [(None, 1322)]       0           []                               
                                                                                                  
 embedding (Embedding)          (None, 172, 384)     3389952     ['input_2[0][0]']                
                                                                                                  
 in_rsts (Embedding)            (None, 1322, 384)    507648      ['input_3[0][0]']                
                                                                                                  
 dense (Dense)                  (None, 172, 256)     98560       ['embedding[0][0]']              
                                                                                                  
 dense_2 (Dense)                (None, 1322, 256)    98560       ['in_rsts[0][0]']                
                                                                                                  
 tf.math.not_equal (TFOpLambda)  (None, 172)         0           ['input_2[0][0]']                
                                                                                                  
 dense_1 (Dense)                (None, 172, 128)     32896       ['dense[0][0]']                  
                                                                                                  
 dense_3 (Dense)                (None, 1322, 128)    32896       ['dense_2[0][0]']                
                                                                                                  
 tf.cast (TFOpLambda)           (None, 172)          0           ['tf.math.not_equal[0][0]']      
                                                                                                  
 word_emb (Lambda)              (None, 172, 128)     0           ['dense_1[0][0]']                
                                                                                                  
 rest_emb (Lambda)              (None, 1322, 128)    0           ['dense_3[0][0]']                
                                                                                                  
 tf.expand_dims (TFOpLambda)    (None, 172, 1)       0           ['tf.cast[0][0]']                
                                                                                                  
 lambda (Lambda)                (None, 172, 1322)    0           ['word_emb[0][0]',               
                                                                  'rest_emb[0][0]']               
                                                                                                  
 tf.tile (TFOpLambda)           (None, 172, 1322)    0           ['tf.expand_dims[0][0]']         
                                                                                                  
 lambda_1 (Lambda)              (None, 172, 1322)    0           ['lambda[0][0]',                 
                                                                  'tf.tile[0][0]']                
                                                                                                  
 dotprod (Activation)           (None, 172, 1322)    0           ['lambda_1[0][0]']               
                                                                                                  
 dropout_1 (Dropout)            (None, 172, 1322)    0           ['dotprod[0][0]']                
                                                                                                  
 sum (Lambda)                   (None, 1322)         0           ['dropout_1[0][0]']              
                                                                                                  
 out (Activation)               (None, 1322)         0           ['sum[0][0]']                    
                                                                                                  
==================================================================================================
Total params: 4,160,512
Trainable params: 4,160,512
Non-trainable params: 0
__________________________________________________________________________________________________
…
 Layer (type)                   Output Shape         Param #     Connected to                     
==================================================================================================
 input_2 (InputLayer)           [(None, 179)]        0           []                               
                                                                                                  
 input_3 (InputLayer)           [(None, 1634)]       0           []                               
                                                                                                  
 embedding (Embedding)          (None, 179, 384)     4201728     ['input_2[0][0]']                
                                                                                                  
 in_rsts (Embedding)            (None, 1634, 384)    627456      ['input_3[0][0]']                
                                                                                                  
 dense (Dense)                  (None, 179, 256)     98560       ['embedding[0][0]']              
                                                                                                  
 dense_2 (Dense)                (None, 1634, 256)    98560       ['in_rsts[0][0]']                
                                                                                                  
 tf.math.not_equal (TFOpLambda)  (None, 179)         0           ['input_2[0][0]']                
                                                                                                  
 dense_1 (Dense)                (None, 179, 128)     32896       ['dense[0][0]']                  
                                                                                                  
 dense_3 (Dense)                (None, 1634, 128)    32896       ['dense_2[0][0]']                
                                                                                                  
 tf.cast (TFOpLambda)           (None, 179)          0           ['tf.math.not_equal[0][0]']      
                                                                                                  
 word_emb (Lambda)              (None, 179, 128)     0           ['dense_1[0][0]']                
                                                                                                  
 rest_emb (Lambda)              (None, 1634, 128)    0           ['dense_3[0][0]']                
                                                                                                  
 tf.expand_dims (TFOpLambda)    (None, 179, 1)       0           ['tf.cast[0][0]']                
                                                                                                  
 lambda (Lambda)                (None, 179, 1634)    0           ['word_emb[0][0]',               
                                                                  'rest_emb[0][0]']               
                                                                                                  
 tf.tile (TFOpLambda)           (None, 179, 1634)    0           ['tf.expand_dims[0][0]']         
                                                                                                  
 lambda_1 (Lambda)              (None, 179, 1634)    0           ['lambda[0][0]',                 
                                                                  'tf.tile[0][0]']                
                                                                                                  
 dotprod (Activation)           (None, 179, 1634)    0           ['lambda_1[0][0]']               
                                                                                                  
 dropout_1 (Dropout)            (None, 179, 1634)    0           ['dotprod[0][0]']                
                                                                                                  
 sum (Lambda)                   (None, 1634)         0           ['dropout_1[0][0]']              
                                                                                                  
 out (Activation)               (None, 1634)         0           ['sum[0][0]']                    
                                                                                                  
==================================================================================================
Total params: 5,092,096
Trainable params: 5,092,096
Non-trainable params: 0
__________________________________________________________________________________________________
…
 input_2 (InputLayer)           [(None, 200)]        0           []                               
                                                                                                  
 input_3 (InputLayer)           [(None, 1985)]       0           []                               
                                                                                                  
 66%|â–ˆâ–ˆâ–ˆâ–ˆâ–ˆâ–ˆâ–Œ   | 66/100 [00:03<00:01, 24.06it/s, correct=69.98%, skipped=1.09%] 69%|â–ˆâ–ˆâ–ˆâ–ˆâ–ˆâ–ˆâ–‰   | 69/100 [00:03<00:01, 24.12it/s, correct=69.98%, skipped=1.09%] embedding (Embedding)          (None, 200, 384)     4634112     ['input_2[0][0]']                
                                                                                                  
 in_rsts (Embedding)            (None, 1985, 384)    762240      ['input_3[0][0]']                
                                                                                                  
 dense (Dense)                  (None, 200, 256)     98560       ['embedding[0][0]']              
                                                                                                  
 dense_2 (Dense)                (None, 1985, 256)    98560       ['in_rsts[0][0]']                
                                                                                                  
 tf.math.not_equal (TFOpLambda)  (None, 200)         0           ['input_2[0][0]']                
                                                                                                  
 dense_1 (Dense)                (None, 200, 128)     32896       ['dense[0][0]']                  
                                                                                                  
 dense_3 (Dense)                (None, 1985, 128)    32896       ['dense_2[0][0]']                
                                                                                                  
 tf.cast (TFOpLambda)           (None, 200)          0           ['tf.math.not_equal[0][0]']      
                                                                                                  
 word_emb (Lambda)              (None, 200, 128)     0           ['dense_1[0][0]']                
                                                                                                  
 rest_emb (Lambda)              (None, 1985, 128)    0           ['dense_3[0][0]']                
                                                                                                  
 tf.expand_dims (TFOpLambda)    (None, 200, 1)       0           ['tf.cast[0][0]']                
                                                                                                  
 lambda (Lambda)                (None, 200, 1985)    0           ['word_emb[0][0]',               
                                                                  'rest_emb[0][0]']               
                                                                                                  
 tf.tile (TFOpLambda)           (None, 200, 1985)    0           ['tf.expand_dims[0][0]']         
                                                                                                  
 lambda_1 (Lambda)              (None, 200, 1985)    0           ['lambda[0][0]',                 
                                                                  'tf.tile[0][0]']                
                                                                                                  
 dotprod (Activation)           (None, 200, 1985)    0           ['lambda_1[0][0]']               
                                                                                                  
 dropout_1 (Dropout)            (None, 200, 1985)    0           ['dotprod[0][0]']                
                                                                                                  
 sum (Lambda)                   (None, 1985)         0           ['dropout_1[0][0]']              
                                                                                                  
 out (Activation)               (None, 1985)         0           ['sum[0][0]']                    
                                                                                                  
==================================================================================================
Total params: 5,659,264
Trainable params: 5,659,264
Non-trainable params: 0
__________________________________________________________________________________________________
…
 Layer (type)                   Output Shape         Param #     Connected to                     
==================================================================================================
 input_2 (InputLayer)           [(None, 178)]        0           []                               
                                                                                                  
 input_3 (InputLayer)           [(None, 3415)]       0           []                               
                                                                                                  
 embedding (Embedding)          (None, 178, 384)     5538048     ['input_2[0][0]']                
                                                                                                  
 in_rsts (Embedding)            (None, 3415, 384)    1311360     ['input_3[0][0]']                
                                                                                                  
 dense (Dense)                  (None, 178, 256)     98560       ['embedding[0][0]']              
                                                                                                  
 dense_2 (Dense)                (None, 3415, 256)    98560       ['in_rsts[0][0]']                
                                                                                                  
 tf.math.not_equal (TFOpLambda)  (None, 178)         0           ['input_2[0][0]']                
                                                                                                  
 dense_1 (Dense)                (None, 178, 128)     32896       ['dense[0][0]']                  
                                                                                                  
 dense_3 (Dense)                (None, 3415, 128)    32896       ['dense_2[0][0]']                
                                                                                                  
 tf.cast (TFOpLambda)           (None, 178)          0           ['tf.math.not_equal[0][0]']      
                                                                                                  
 word_emb (Lambda)              (None, 178, 128)     0           ['dense_1[0][0]']                
                                                                                                  
 rest_emb (Lambda)              (None, 3415, 128)    0           ['dense_3[0][0]']                
                                                                                                  
 tf.expand_dims (TFOpLambda)    (None, 178, 1)       0           ['tf.cast[0][0]']                
                                                                                                  
 lambda (Lambda)                (None, 178, 3415)    0           ['word_emb[0][0]',               
                                                                  'rest_emb[0][0]']               
                                                                                                  
 tf.tile (TFOpLambda)           (None, 178, 3415)    0           ['tf.expand_dims[0][0]']         
                                                                                                  
 lambda_1 (Lambda)              (None, 178, 3415)    0           ['lambda[0][0]',                 
                                                                  'tf.tile[0][0]']                
                                                                                                  
 dotprod (Activation)           (None, 178, 3415)    0           ['lambda_1[0][0]']               
                                                                                                  
 dropout_1 (Dropout)            (None, 178, 3415)    0           ['dotprod[0][0]']                
                                                                                                  
 sum (Lambda)                   (None, 3415)         0           ['dropout_1[0][0]']              
                                                                                                  
 out (Activation)               (None, 3415)         0           ['sum[0][0]']                    
                                                                                                  
==================================================================================================
Total params: 7,112,320
Trainable params: 7,112,320
Non-trainable params: 0
__________________________________________________________________________________________________
…
 Layer (type)                   Output Shape         Param #     Connected to                     
==================================================================================================
 input_2 (InputLayer)           [(None, 142)]        0           []                               
                                                                                                  
 input_3 (InputLayer)           [(None, 1028)]       0           []                               
                                                                                                  
 embedding (Embedding)          (None, 142, 384)     2126592     ['input_2[0][0]']                
                                                                                                  
 in_rsts (Embedding)            (None, 1028, 384)    394752      ['input_3[0][0]']                
                                                                                                  
 dense (Dense)                  (None, 142, 256)     98560       ['embedding[0][0]']              
                                                                                                  
 dense_2 (Dense)                (None, 1028, 256)    98560       ['in_rsts[0][0]']                
                                                                                                  
 tf.math.not_equal (TFOpLambda)  (None, 142)         0           ['input_2[0][0]']                
                                                                                                  
 dense_1 (Dense)                (None, 142, 128)     32896       ['dense[0][0]']                  
                                                                                                  
 dense_3 (Dense)                (None, 1028, 128)    32896       ['dense_2[0][0]']                
                                                                                                  
 tf.cast (TFOpLambda)           (None, 142)          0           ['tf.math.not_equal[0][0]']      
                                                                                                  
 word_emb (Lambda)              (None, 142, 128)     0           ['dense_1[0][0]']                
                                                                                                  
 rest_emb (Lambda)              (None, 1028, 128)    0           ['dense_3[0][0]']                
                                                                                                  
 tf.expand_dims (TFOpLambda)    (None, 142, 1)       0           ['tf.cast[0][0]']                
                                                                                                  
 lambda (Lambda)                (None, 142, 1028)    0           ['word_emb[0][0]',               
                                                                  'rest_emb[0][0]']               
                                                                                                  
 tf.tile (TFOpLambda)           (None, 142, 1028)    0           ['tf.expand_dims[0][0]']         
                                                                                                  
 lambda_1 (Lambda)              (None, 142, 1028)    0           ['lambda[0][0]',                 
                                                                  'tf.tile[0][0]']                
                                                                                                  
 dotprod (Activation)           (None, 142, 1028)    0           ['lambda_1[0][0]']               
                                                                                                  
 dropout_1 (Dropout)            (None, 142, 1028)    0           ['dotprod[0][0]']                
                                                                                                  
 sum (Lambda)                   (None, 1028)         0           ['dropout_1[0][0]']              
                                                                                                  
 out (Activation)               (None, 1028)         0           ['sum[0][0]']                    
                                                                                                  
==================================================================================================
Total params: 2,784,256
Trainable params: 2,784,256
Non-trainable params: 0
__________________________________________________________________________________________________
…
 Layer (type)                   Output Shape         Param #     Connected to                     
==================================================================================================
 input_2 (InputLayer)           [(None, 101)]        0           []                               
                                                                                                  
 input_3 (InputLayer)           [(None, 706)]        0           []                               
                                                                                                  
 embedding (Embedding)          (None, 101, 384)     1234560     ['input_2[0][0]']                
                                                                                                  
 in_rsts (Embedding)            (None, 706, 384)     271104      ['input_3[0][0]']                
                                                                                                  
 dense (Dense)                  (None, 101, 256)     98560       ['embedding[0][0]']              
                                                                                                  
 dense_2 (Dense)                (None, 706, 256)     98560       ['in_rsts[0][0]']                
                                                                                                  
 tf.math.not_equal (TFOpLambda)  (None, 101)         0           ['input_2[0][0]']                
                                                                                                  
 dense_1 (Dense)                (None, 101, 128)     32896       ['dense[0][0]']                  
                                                                                                  
 dense_3 (Dense)                (None, 706, 128)     32896       ['dense_2[0][0]']                
                                                                                                  
 tf.cast (TFOpLambda)           (None, 101)          0           ['tf.math.not_equal[0][0]']      
                                                                                                  
 word_emb (Lambda)              (None, 101, 128)     0           ['dense_1[0][0]']                
                                                                                                  
 rest_emb (Lambda)              (None, 706, 128)     0           ['dense_3[0][0]']                
                                                                                                  
 tf.expand_dims (TFOpLambda)    (None, 101, 1)       0           ['tf.cast[0][0]']                
                                                                                                  
 lambda (Lambda)                (None, 101, 706)     0           ['word_emb[0][0]',               
                                                                  'rest_emb[0][0]']               
                                                                                                  
 tf.tile (TFOpLambda)           (None, 101, 706)     0           ['tf.expand_dims[0][0]']         
                                                                                                  
 lambda_1 (Lambda)              (None, 101, 706)     0           ['lambda[0][0]',                 
                                                                  'tf.tile[0][0]']                
                                                                                                  
 dotprod (Activation)           (None, 101, 706)     0           ['lambda_1[0][0]']               
                                                                                                  
 dropout_1 (Dropout)            (None, 101, 706)     0           ['dotprod[0][0]']                
                                                                                                  
 sum (Lambda)                   (None, 706)          0           ['dropout_1[0][0]']              
                                                                                                  
 out (Activation)               (None, 706)          0           ['sum[0][0]']                    
                                                                                                  
==================================================================================================
Total params: 1,768,576
Trainable params: 1,768,576
Non-trainable params: 0
__________________________________________________________________________________________________
…
