…
 Layer (type)                   Output Shape         Param #     Connected to                     
==================================================================================================
 input_1 (InputLayer)           [(None, 172)]        0           []                               
                                                                                                  
 input_2 (InputLayer)           [(None, 1322)]       0           []                               
                                                                                                  
 all_words (Embedding)          (None, 172, 128)     1129984     ['input_1[0][0]']                
                                                                                                  
 all_items (Embedding)          (None, 1322, 128)    169216      ['input_2[0][0]']                
                                                                                                  
 tf.math.not_equal (TFOpLambda)  (None, 172)         0           ['input_1[0][0]']                
                                                                                                  
 word_emb (Lambda)              (None, 172, 128)     0           ['all_words[0][0]']              
                                                                                                  
 rest_emb (Lambda)              (None, 1322, 128)    0           ['all_items[0][0]']              
                                                                                                  
 tf.cast (TFOpLambda)           (None, 172)          0           ['tf.math.not_equal[0][0]']      
                                                                                                  
 dropout (Dropout)              (None, 172, 128)     0           ['word_emb[0][0]']               
                                                                                                  
 dropout_1 (Dropout)            (None, 1322, 128)    0           ['rest_emb[0][0]']               
                                                                                                  
 tf.expand_dims (TFOpLambda)    (None, 172, 1)       0           ['tf.cast[0][0]']                
                                                                                                  
 dot_mul (Lambda)               (None, 172, 1322)    0           ['dropout[0][0]',                
                                                                  'dropout_1[0][0]']              
                                                                                                  
 tf.tile (TFOpLambda)           (None, 172, 1322)    0           ['tf.expand_dims[0][0]']         
                                                                                                  
 dot_mask (Lambda)              (None, 172, 1322)    0           ['dot_mul[0][0]',                
                                                                  'tf.tile[0][0]']                
                                                                                                  
 dotprod (Activation)           (None, 172, 1322)    0           ['dot_mask[0][0]']               
                                                                                                  
 sum (Lambda)                   (None, 1322)         0           ['dotprod[0][0]']                
                                                                                                  
 re_lu (ReLU)                   (None, 1322)         0           ['sum[0][0]']                    
                                                                                                  
 out (Activation)               (None, 1322)         0           ['re_lu[0][0]']                  
                                                                                                  
==================================================================================================
Total params: 1,299,200
Trainable params: 1,299,200
Non-trainable params: 0
__________________________________________________________________________________________________
…
