…
 Layer (type)                   Output Shape         Param #     Connected to                     
==================================================================================================
 input_1 (InputLayer)           [(None, 172)]        0           []                               
                                                                                                  
 input_2 (InputLayer)           [(None, 1322)]       0           []                               
                                                                                                  
 embedding (Embedding)          (None, 172, 128)     1129984     ['input_1[0][0]']                
                                                                                                  
 embedding_1 (Embedding)        (None, 1322, 128)    169216      ['input_2[0][0]']                
                                                                                                  
 tf.math.not_equal (TFOpLambda)  (None, 172)         0           ['input_1[0][0]']                
                                                                                                  
 word_emb (Lambda)              (None, 172, 128)     0           ['embedding[0][0]']              
                                                                                                  
 rest_emb (Lambda)              (None, 1322, 128)    0           ['embedding_1[0][0]']            
                                                                                                  
 tf.cast (TFOpLambda)           (None, 172)          0           ['tf.math.not_equal[0][0]']      
                                                                                                  
 dropout (Dropout)              (None, 172, 128)     0           ['word_emb[0][0]']               
                                                                                                  
 dropout_1 (Dropout)            (None, 1322, 128)    0           ['rest_emb[0][0]']               
                                                                                                  
 tf.expand_dims (TFOpLambda)    (None, 172, 1)       0           ['tf.cast[0][0]']                
                                                                                                  
 lambda (Lambda)                (None, 172, 1322)    0           ['dropout[0][0]',                
                                                                  'dropout_1[0][0]']              
                                                                                                  
 tf.tile (TFOpLambda)           (None, 172, 1322)    0           ['tf.expand_dims[0][0]']         
                                                                                                  
 lambda_1 (Lambda)              (None, 172, 1322)    0           ['lambda[0][0]',                 
                                                                  'tf.tile[0][0]']                
                                                                                                  
 dotprod (Activation)           (None, 172, 1322)    0           ['lambda_1[0][0]']               
                                                                                                  
 sum (Lambda)                   (None, 1322)         0           ['dotprod[0][0]']                
                                                                                                  
 activation (Activation)        (None, 1322)         0           ['sum[0][0]']                    
                                                                                                  
 out (Activation)               (None, 1322)         0           ['activation[0][0]']             
                                                                                                  
==================================================================================================
Total params: 1,299,200
Trainable params: 1,299,200
Non-trainable params: 0
__________________________________________________________________________________________________
…
 Layer (type)                   Output Shape         Param #     Connected to                     
==================================================================================================
 input_1 (InputLayer)           [(None, 162)]        0           []                               
                                                                                                  
 input_2 (InputLayer)           [(None, 149)]        0           []                               
                                                                                                  
 embedding (Embedding)          (None, 162, 200)     482800      ['input_1[0][0]']                
                                                                                                  
 embedding_1 (Embedding)        (None, 149, 200)     29800       ['input_2[0][0]']                
                                                                                                  
 tf.math.not_equal (TFOpLambda)  (None, 162)         0           ['input_1[0][0]']                
                                                                                                  
 word_emb (Lambda)              (None, 162, 200)     0           ['embedding[0][0]']              
                                                                                                  
 rest_emb (Lambda)              (None, 149, 200)     0           ['embedding_1[0][0]']            
                                                                                                  
 tf.cast (TFOpLambda)           (None, 162)          0           ['tf.math.not_equal[0][0]']      
                                                                                                  
 dropout (Dropout)              (None, 162, 200)     0           ['word_emb[0][0]']               
                                                                                                  
 dropout_1 (Dropout)            (None, 149, 200)     0           ['rest_emb[0][0]']               
                                                                                                  
 tf.expand_dims (TFOpLambda)    (None, 162, 1)       0           ['tf.cast[0][0]']                
                                                                                                  
 lambda (Lambda)                (None, 162, 149)     0           ['dropout[0][0]',                
                                                                  'dropout_1[0][0]']              
                                                                                                  
 tf.tile (TFOpLambda)           (None, 162, 149)     0           ['tf.expand_dims[0][0]']         
                                                                                                  
 lambda_1 (Lambda)              (None, 162, 149)     0           ['lambda[0][0]',                 
                                                                  'tf.tile[0][0]']                
                                                                                                  
 dotprod (Activation)           (None, 162, 149)     0           ['lambda_1[0][0]']               
                                                                                                  
 sum (Lambda)                   (None, 149)          0           ['dotprod[0][0]']                
                                                                                                  
 activation (Activation)        (None, 149)          0           ['sum[0][0]']                    
                                                                                                  
 out (Activation)               (None, 149)          0           ['activation[0][0]']             
                                                                                                  
==================================================================================================
Total params: 512,600
Trainable params: 512,600
Non-trainable params: 0
__________________________________________________________________________________________________
…
 Layer (type)                   Output Shape         Param #     Connected to                     
==================================================================================================
 input_1 (InputLayer)           [(None, 172)]        0           []                               
                                                                                                  
 input_2 (InputLayer)           [(None, 1322)]       0           []                               
                                                                                                  
 embedding (Embedding)          (None, 172, 200)     1765600     ['input_1[0][0]']                
                                                                                                  
 embedding_1 (Embedding)        (None, 1322, 200)    264400      ['input_2[0][0]']                
                                                                                                  
 tf.math.not_equal (TFOpLambda)  (None, 172)         0           ['input_1[0][0]']                
                                                                                                  
 word_emb (Lambda)              (None, 172, 200)     0           ['embedding[0][0]']              
                                                                                                  
 rest_emb (Lambda)              (None, 1322, 200)    0           ['embedding_1[0][0]']            
                                                                                                  
 tf.cast (TFOpLambda)           (None, 172)          0           ['tf.math.not_equal[0][0]']      
                                                                                                  
 dropout (Dropout)              (None, 172, 200)     0           ['word_emb[0][0]']               
                                                                                                  
 dropout_1 (Dropout)            (None, 1322, 200)    0           ['rest_emb[0][0]']               
                                                                                                  
 tf.expand_dims (TFOpLambda)    (None, 172, 1)       0           ['tf.cast[0][0]']                
                                                                                                  
 lambda (Lambda)                (None, 172, 1322)    0           ['dropout[0][0]',                
                                                                  'dropout_1[0][0]']              
                                                                                                  
 tf.tile (TFOpLambda)           (None, 172, 1322)    0           ['tf.expand_dims[0][0]']         
                                                                                                  
 lambda_1 (Lambda)              (None, 172, 1322)    0           ['lambda[0][0]',                 
                                                                  'tf.tile[0][0]']                
                                                                                                  
 dotprod (Activation)           (None, 172, 1322)    0           ['lambda_1[0][0]']               
                                                                                                  
 sum (Lambda)                   (None, 1322)         0           ['dotprod[0][0]']                
                                                                                                  
 activation (Activation)        (None, 1322)         0           ['sum[0][0]']                    
                                                                                                  
 out (Activation)               (None, 1322)         0           ['activation[0][0]']             
                                                                                                  
==================================================================================================
Total params: 2,030,000
Trainable params: 2,030,000
Non-trainable params: 0
__________________________________________________________________________________________________
…
 Layer (type)                   Output Shape         Param #     Connected to                     
==================================================================================================
 input_1 (InputLayer)           [(None, 172)]        0           []                               
                                                                                                  
 input_2 (InputLayer)           [(None, 1322)]       0           []                               
                                                                                                  
 all_words (Embedding)          (None, 172, 256)     2259968     ['input_1[0][0]']                
                                                                                                  
 all_items (Embedding)          (None, 1322, 256)    338432      ['input_2[0][0]']                
                                                                                                  
 tf.math.not_equal (TFOpLambda)  (None, 172)         0           ['input_1[0][0]']                
                                                                                                  
 word_emb (Lambda)              (None, 172, 256)     0           ['all_words[0][0]']              
                                                                                                  
 rest_emb (Lambda)              (None, 1322, 256)    0           ['all_items[0][0]']              
                                                                                                  
 tf.cast (TFOpLambda)           (None, 172)          0           ['tf.math.not_equal[0][0]']      
                                                                                                  
 dropout (Dropout)              (None, 172, 256)     0           ['word_emb[0][0]']               
                                                                                                  
 dropout_1 (Dropout)            (None, 1322, 256)    0           ['rest_emb[0][0]']               
                                                                                                  
 tf.expand_dims (TFOpLambda)    (None, 172, 1)       0           ['tf.cast[0][0]']                
                                                                                                  
 dot_mul (Lambda)               (None, 172, 1322)    0           ['dropout[0][0]',                
                                                                  'dropout_1[0][0]']              
                                                                                                  
 tf.tile (TFOpLambda)           (None, 172, 1322)    0           ['tf.expand_dims[0][0]']         
                                                                                                  
 dot_mask (Lambda)              (None, 172, 1322)    0           ['dot_mul[0][0]',                
                                                                  'tf.tile[0][0]']                
                                                                                                  
 dotprod (Activation)           (None, 172, 1322)    0           ['dot_mask[0][0]']               
                                                                                                  
 sum (Lambda)                   (None, 1322)         0           ['dotprod[0][0]']                
                                                                                                  
 activation (Activation)        (None, 1322)         0           ['sum[0][0]']                    
                                                                                                  
 out (Activation)               (None, 1322)         0           ['activation[0][0]']             
                                                                                                  
==================================================================================================
Total params: 2,598,400
Trainable params: 2,598,400
Non-trainable params: 0
__________________________________________________________________________________________________
…
 Layer (type)                   Output Shape         Param #     Connected to                     
==================================================================================================
 input_1 (InputLayer)           [(None, 172)]        0           []                               
                                                                                                  
 input_2 (InputLayer)           [(None, 1322)]       0           []                               
                                                                                                  
 all_words (Embedding)          (None, 172, 32)      282496      ['input_1[0][0]']                
                                                                                                  
 all_items (Embedding)          (None, 1322, 32)     42304       ['input_2[0][0]']                
                                                                                                  
 tf.math.not_equal (TFOpLambda)  (None, 172)         0           ['input_1[0][0]']                
                                                                                                  
 word_emb (Lambda)              (None, 172, 32)      0           ['all_words[0][0]']              
                                                                                                  
 rest_emb (Lambda)              (None, 1322, 32)     0           ['all_items[0][0]']              
                                                                                                  
 tf.cast (TFOpLambda)           (None, 172)          0           ['tf.math.not_equal[0][0]']      
                                                                                                  
 dropout (Dropout)              (None, 172, 32)      0           ['word_emb[0][0]']               
                                                                                                  
 dropout_1 (Dropout)            (None, 1322, 32)     0           ['rest_emb[0][0]']               
                                                                                                  
 tf.expand_dims (TFOpLambda)    (None, 172, 1)       0           ['tf.cast[0][0]']                
                                                                                                  
 dot_mul (Lambda)               (None, 172, 1322)    0           ['dropout[0][0]',                
                                                                  'dropout_1[0][0]']              
                                                                                                  
 tf.tile (TFOpLambda)           (None, 172, 1322)    0           ['tf.expand_dims[0][0]']         
                                                                                                  
 dot_mask (Lambda)              (None, 172, 1322)    0           ['dot_mul[0][0]',                
                                                                  'tf.tile[0][0]']                
                                                                                                  
 dotprod (Activation)           (None, 172, 1322)    0           ['dot_mask[0][0]']               
                                                                                                  
 sum (Lambda)                   (None, 1322)         0           ['dotprod[0][0]']                
                                                                                                  
 activation (Activation)        (None, 1322)         0           ['sum[0][0]']                    
                                                                                                  
 out (Activation)               (None, 1322)         0           ['activation[0][0]']             
                                                                                                  
==================================================================================================
Total params: 324,800
Trainable params: 324,800
Non-trainable params: 0
__________________________________________________________________________________________________
…
