…
 Layer (type)                   Output Shape         Param #     Connected to                     
==================================================================================================
 input_1 (InputLayer)           [(None, 172)]        0           []                               
                                                                                                  
 input_2 (InputLayer)           [(None, 1322)]       0           []                               
                                                                                                  
 tf.math.not_equal (TFOpLambda)  (None, 172)         0           ['input_1[0][0]']                
                                                                                                  
 embedding (Embedding)          (None, 172, 16)      141248      ['input_1[0][0]']                
                                                                                                  
 in_rsts (Embedding)            (None, 1322, 16)     21152       ['input_2[0][0]']                
                                                                                                  
 tf.cast (TFOpLambda)           (None, 172)          0           ['tf.math.not_equal[0][0]']      
                                                                                                  
 word_emb (Lambda)              (None, 172, 16)      0           ['embedding[0][0]']              
                                                                                                  
 rest_emb (Lambda)              (None, 1322, 16)     0           ['in_rsts[0][0]']                
                                                                                                  
 tf.expand_dims (TFOpLambda)    (None, 172, 1)       0           ['tf.cast[0][0]']                
                                                                                                  
 lambda (Lambda)                (None, 172, 1322)    0           ['word_emb[0][0]',               
                                                                  'rest_emb[0][0]']               
                                                                                                  
 tf.tile (TFOpLambda)           (None, 172, 1322)    0           ['tf.expand_dims[0][0]']         
                                                                                                  
 lambda_1 (Lambda)              (None, 172, 1322)    0           ['lambda[0][0]',                 
                                                                  'tf.tile[0][0]']                
                                                                                                  
 dotprod (Activation)           (None, 172, 1322)    0           ['lambda_1[0][0]']               
                                                                                                  
 dropout (Dropout)              (None, 172, 1322)    0           ['dotprod[0][0]']                
                                                                                                  
 sum (Lambda)                   (None, 1322)         0           ['dropout[0][0]']                
                                                                                                  
 layer_normalization (LayerNorm  (None, 1322)        2644        ['sum[0][0]']                    
 alization)                                                                                       
                                                                                                  
 out (Activation)               (None, 1322)         0           ['layer_normalization[0][0]']    
                                                                                                  
==================================================================================================
Total params: 165,044
Trainable params: 165,044
Non-trainable params: 0
__________________________________________________________________________________________________
…
