…
                                 past_key_values=No                                               
                                ne, hidden_states=N                                               
                                one, attentions=Non                                               
                                e, cross_attentions                                               
                                =None)                                                            
                                                                                                  
 in_rsts (Embedding)            (None, 149, 384)     57216       ['input_2[0][0]']                
                                                                                                  
 tf.math.not_equal (TFOpLambda)  (None, 162)         0           ['input_1[0][0]']                
                                                                                                  
 word_emb (Lambda)              (None, 162, 384)     0           ['tf_bert_model[0][0]']          
                                                                                                  
 dropout_38 (Dropout)           (None, 149, 384)     0           ['in_rsts[0][0]']                
                                                                                                  
 tf.cast (TFOpLambda)           (None, 162)          0           ['tf.math.not_equal[0][0]']      
                                                                                                  
 dropout_37 (Dropout)           (None, 162, 384)     0           ['word_emb[0][0]']               
                                                                                                  
 rest_emb (Lambda)              (None, 149, 384)     0           ['dropout_38[0][0]']             
                                                                                                  
 tf.expand_dims (TFOpLambda)    (None, 162, 1)       0           ['tf.cast[0][0]']                
                                                                                                  
 lambda (Lambda)                (None, 162, 149)     0           ['dropout_37[0][0]',             
                                                                  'rest_emb[0][0]']               
                                                                                                  
 tf.tile (TFOpLambda)           (None, 162, 149)     0           ['tf.expand_dims[0][0]']         
                                                                                                  
 lambda_1 (Lambda)              (None, 162, 149)     0           ['lambda[0][0]',                 
                                                                  'tf.tile[0][0]']                
                                                                                                  
 dotprod (Activation)           (None, 162, 149)     0           ['lambda_1[0][0]']               
                                                                                                  
 dropout_39 (Dropout)           (None, 162, 149)     0           ['dotprod[0][0]']                
                                                                                                  
 sum (Lambda)                   (None, 149)          0           ['dropout_39[0][0]']             
                                                                                                  
 out (Activation)               (None, 149)          0           ['sum[0][0]']                    
                                                                                                  
==================================================================================================
Total params: 117,710,976
Trainable params: 117,710,976
Non-trainable params: 0
__________________________________________________________________________________________________
…
