…
 Layer (type)                   Output Shape         Param #     Connected to                     
==================================================================================================
 input_1 (InputLayer)           [(None, 200)]        0           []                               
                                                                                                  
 input_2 (InputLayer)           [(None, 1985)]       0           []                               
                                                                                                  
 embedding (Embedding)          (None, 200, 128)     1544704     ['input_1[0][0]']                
                                                                                                  
 embedding_1 (Embedding)        (None, 1985, 128)    254080      ['input_2[0][0]']                
                                                                                                  
 tf.math.not_equal (TFOpLambda)  (None, 200)         0           ['input_1[0][0]']                
                                                                                                  
 word_emb (Lambda)              (None, 200, 128)     0           ['embedding[0][0]']              
                                                                                                  
 rest_emb (Lambda)              (None, 1985, 128)    0           ['embedding_1[0][0]']            
                                                                                                  
 tf.cast (TFOpLambda)           (None, 200)          0           ['tf.math.not_equal[0][0]']      
                                                                                                  
 dropout (Dropout)              (None, 200, 128)     0           ['word_emb[0][0]']               
                                                                                                  
 dropout_1 (Dropout)            (None, 1985, 128)    0           ['rest_emb[0][0]']               
                                                                                                  
 tf.expand_dims (TFOpLambda)    (None, 200, 1)       0           ['tf.cast[0][0]']                
                                                                                                  
 lambda (Lambda)                (None, 200, 1985)    0           ['dropout[0][0]',                
                                                                  'dropout_1[0][0]']              
                                                                                                  
 tf.tile (TFOpLambda)           (None, 200, 1985)    0           ['tf.expand_dims[0][0]']         
                                                                                                  
 lambda_1 (Lambda)              (None, 200, 1985)    0           ['lambda[0][0]',                 
                                                                  'tf.tile[0][0]']                
                                                                                                  
 dotprod (Activation)           (None, 200, 1985)    0           ['lambda_1[0][0]']               
                                                                                                  
 sum (Lambda)                   (None, 1985)         0           ['dotprod[0][0]']                
                                                                                                  
 activation (Activation)        (None, 1985)         0           ['sum[0][0]']                    
                                                                                                  
 out (Activation)               (None, 1985)         0           ['activation[0][0]']             
                                                                                                  
==================================================================================================
Total params: 1,798,784
Trainable params: 1,798,784
Non-trainable params: 0
__________________________________________________________________________________________________
…
 Layer (type)                   Output Shape         Param #     Connected to                     
==================================================================================================
 input_1 (InputLayer)           [(None, 200)]        0           []                               
                                                                                                  
 input_2 (InputLayer)           [(None, 1985)]       0           []                               
                                                                                                  
 embedding (Embedding)          (None, 200, 200)     2413600     ['input_1[0][0]']                
                                                                                                  
 embedding_1 (Embedding)        (None, 1985, 200)    397000      ['input_2[0][0]']                
                                                                                                  
 tf.math.not_equal (TFOpLambda)  (None, 200)         0           ['input_1[0][0]']                
                                                                                                  
 word_emb (Lambda)              (None, 200, 200)     0           ['embedding[0][0]']              
                                                                                                  
 rest_emb (Lambda)              (None, 1985, 200)    0           ['embedding_1[0][0]']            
                                                                                                  
 tf.cast (TFOpLambda)           (None, 200)          0           ['tf.math.not_equal[0][0]']      
                                                                                                  
 dropout (Dropout)              (None, 200, 200)     0           ['word_emb[0][0]']               
                                                                                                  
 dropout_1 (Dropout)            (None, 1985, 200)    0           ['rest_emb[0][0]']               
                                                                                                  
 tf.expand_dims (TFOpLambda)    (None, 200, 1)       0           ['tf.cast[0][0]']                
                                                                                                  
 lambda (Lambda)                (None, 200, 1985)    0           ['dropout[0][0]',                
                                                                  'dropout_1[0][0]']              
                                                                                                  
 tf.tile (TFOpLambda)           (None, 200, 1985)    0           ['tf.expand_dims[0][0]']         
                                                                                                  
 lambda_1 (Lambda)              (None, 200, 1985)    0           ['lambda[0][0]',                 
                                                                  'tf.tile[0][0]']                
                                                                                                  
 dotprod (Activation)           (None, 200, 1985)    0           ['lambda_1[0][0]']               
                                                                                                  
 sum (Lambda)                   (None, 1985)         0           ['dotprod[0][0]']                
                                                                                                  
 activation (Activation)        (None, 1985)         0           ['sum[0][0]']                    
                                                                                                  
 out (Activation)               (None, 1985)         0           ['activation[0][0]']             
                                                                                                  
==================================================================================================
Total params: 2,810,600
Trainable params: 2,810,600
Non-trainable params: 0
__________________________________________________________________________________________________
…
 Layer (type)                   Output Shape         Param #     Connected to                     
==================================================================================================
 input_1 (InputLayer)           [(None, 200)]        0           []                               
                                                                                                  
 input_2 (InputLayer)           [(None, 1985)]       0           []                               
                                                                                                  
 all_words (Embedding)          (None, 200, 256)     3089408     ['input_1[0][0]']                
                                                                                                  
 all_items (Embedding)          (None, 1985, 256)    508160      ['input_2[0][0]']                
                                                                                                  
 tf.math.not_equal (TFOpLambda)  (None, 200)         0           ['input_1[0][0]']                
                                                                                                  
 word_emb (Lambda)              (None, 200, 256)     0           ['all_words[0][0]']              
                                                                                                  
 rest_emb (Lambda)              (None, 1985, 256)    0           ['all_items[0][0]']              
                                                                                                  
 tf.cast (TFOpLambda)           (None, 200)          0           ['tf.math.not_equal[0][0]']      
                                                                                                  
 dropout (Dropout)              (None, 200, 256)     0           ['word_emb[0][0]']               
                                                                                                  
 dropout_1 (Dropout)            (None, 1985, 256)    0           ['rest_emb[0][0]']               
                                                                                                  
 tf.expand_dims (TFOpLambda)    (None, 200, 1)       0           ['tf.cast[0][0]']                
                                                                                                  
 dot_mul (Lambda)               (None, 200, 1985)    0           ['dropout[0][0]',                
                                                                  'dropout_1[0][0]']              
                                                                                                  
 tf.tile (TFOpLambda)           (None, 200, 1985)    0           ['tf.expand_dims[0][0]']         
                                                                                                  
 dot_mask (Lambda)              (None, 200, 1985)    0           ['dot_mul[0][0]',                
                                                                  'tf.tile[0][0]']                
                                                                                                  
 dotprod (Activation)           (None, 200, 1985)    0           ['dot_mask[0][0]']               
                                                                                                  
 sum (Lambda)                   (None, 1985)         0           ['dotprod[0][0]']                
                                                                                                  
 activation (Activation)        (None, 1985)         0           ['sum[0][0]']                    
                                                                                                  
 out (Activation)               (None, 1985)         0           ['activation[0][0]']             
                                                                                                  
==================================================================================================
Total params: 3,597,568
Trainable params: 3,597,568
Non-trainable params: 0
__________________________________________________________________________________________________
…
                                 past_key_values=No                                               
                                ne, hidden_states=N                                               
                                one, attentions=Non                                               
                                e, cross_attentions                                               
                                =None)                                                            
                                                                                                  
 rest_emb (Lambda)              (None, 1985, 768)    0           ['all_items[0][0]']              
                                                                                                  
 tf.cast (TFOpLambda)           (None, 200)          0           ['tf.math.not_equal[0][0]']      
                                                                                                  
 word_emb (Lambda)              (None, 200, 768)     0           ['tf_bert_model[0][0]']          
                                                                                                  
 dropout_37 (Dropout)           (None, 1985, 768)    0           ['rest_emb[0][0]']               
                                                                                                  
 tf.expand_dims (TFOpLambda)    (None, 200, 1)       0           ['tf.cast[0][0]']                
                                                                                                  
 dot_mul (Lambda)               (None, 200, 1985)    0           ['word_emb[0][0]',               
                                                                  'dropout_37[0][0]']             
                                                                                                  
 tf.tile (TFOpLambda)           (None, 200, 1985)    0           ['tf.expand_dims[0][0]']         
                                                                                                  
 dot_mask (Lambda)              (None, 200, 1985)    0           ['dot_mul[0][0]',                
                                                                  'tf.tile[0][0]']                
                                                                                                  
 dotprod (Activation)           (None, 200, 1985)    0           ['dot_mask[0][0]']               
                                                                                                  
 sum (Lambda)                   (None, 1985)         0           ['dotprod[0][0]']                
                                                                                                  
 activation (Activation)        (None, 1985)         0           ['sum[0][0]']                    
                                                                                                  
 out (Activation)               (None, 1985)         0           ['activation[0][0]']             
                                                                                                  
==================================================================================================
Total params: 168,880,896
Trainable params: 1,524,480
Non-trainable params: 167,356,416
__________________________________________________________________________________________________
…
