[93m[WARNING] Model folder already exists...[0m
[92m[INFO] Loading existing model...[0m
[92m[INFO] Model already trained![0m
[93m[WARNING] Model folder already exists...[0m
[92m[INFO] Loading w2v...[0m
Model: "sequential"
_________________________________________________________________
Layer (type)                 Output Shape              Param #   
=================================================================
embedding (Embedding)        (None, None, 300)         41334000  
_________________________________________________________________
lstm (LSTM)                  (None, 256)               570368    
_________________________________________________________________
dense (Dense)                (None, 128)               32896     
_________________________________________________________________
dense_1 (Dense)              (None, 64)                8256      
_________________________________________________________________
dense_2 (Dense)              (None, 32)                2080      
_________________________________________________________________
dense_3 (Dense)              (None, 16)                528       
_________________________________________________________________
dense_4 (Dense)              (None, 1)                 17        
=================================================================
Total params: 41,948,145
Trainable params: 614,145
Non-trainable params: 41,334,000
_________________________________________________________________
None
[92m[INFO] Best epoch number: 7[0m
Epoch 1/7
20709/20709 - 3451s - loss: 46.1047 - mean_absolute_error: 4.8994
Epoch 2/7
20709/20709 - 3483s - loss: 31.1319 - mean_absolute_error: 4.2681
…
