…
 Layer (type)                   Output Shape         Param #     Connected to                     
==================================================================================================
 input_1 (InputLayer)           [(None, 172)]        0           []                               
                                                                                                  
 input_2 (InputLayer)           [(None, 1322)]       0           []                               
                                                                                                  
 embedding (Embedding)          (None, 172, 64)      564992      ['input_1[0][0]']                
                                                                                                  
 in_rsts (Embedding)            (None, 1322, 64)     84608       ['input_2[0][0]']                
                                                                                                  
 tf.math.not_equal (TFOpLambda)  (None, 172)         0           ['input_1[0][0]']                
                                                                                                  
 word_emb (Lambda)              (None, 172, 64)      0           ['embedding[0][0]']              
                                                                                                  
 rest_emb (Lambda)              (None, 1322, 64)     0           ['in_rsts[0][0]']                
                                                                                                  
 tf.cast (TFOpLambda)           (None, 172)          0           ['tf.math.not_equal[0][0]']      
                                                                                                  
 dropout (Dropout)              (None, 172, 64)      0           ['word_emb[0][0]']               
                                                                                                  
 dropout_1 (Dropout)            (None, 1322, 64)     0           ['rest_emb[0][0]']               
                                                                                                  
 tf.expand_dims (TFOpLambda)    (None, 172, 1)       0           ['tf.cast[0][0]']                
                                                                                                  
 lambda (Lambda)                (None, 172, 1322)    0           ['dropout[0][0]',                
                                                                  'dropout_1[0][0]']              
                                                                                                  
 tf.tile (TFOpLambda)           (None, 172, 1322)    0           ['tf.expand_dims[0][0]']         
                                                                                                  
 lambda_1 (Lambda)              (None, 172, 1322)    0           ['lambda[0][0]',                 
                                                                  'tf.tile[0][0]']                
                                                                                                  
 dotprod (Activation)           (None, 172, 1322)    0           ['lambda_1[0][0]']               
                                                                                                  
 sum (Lambda)                   (None, 1322)         0           ['dotprod[0][0]']                
                                                                                                  
 normalization (Normalization)  (None, 1322)         2645        ['sum[0][0]']                    
                                                                                                  
 out (Activation)               (None, 1322)         0           ['normalization[0][0]']          
                                                                                                  
==================================================================================================
Total params: 652,245
Trainable params: 649,600
Non-trainable params: 2,645
__________________________________________________________________________________________________
…
 Layer (type)                   Output Shape         Param #     Connected to                     
==================================================================================================
 input_1 (InputLayer)           [(None, 172)]        0           []                               
                                                                                                  
 input_2 (InputLayer)           [(None, 1322)]       0           []                               
                                                                                                  
 embedding (Embedding)          (None, 172, 45)      397260      ['input_1[0][0]']                
                                                                                                  
 in_rsts (Embedding)            (None, 1322, 45)     59490       ['input_2[0][0]']                
                                                                                                  
 tf.math.not_equal (TFOpLambda)  (None, 172)         0           ['input_1[0][0]']                
                                                                                                  
 word_emb (Lambda)              (None, 172, 45)      0           ['embedding[0][0]']              
                                                                                                  
 rest_emb (Lambda)              (None, 1322, 45)     0           ['in_rsts[0][0]']                
                                                                                                  
 tf.cast (TFOpLambda)           (None, 172)          0           ['tf.math.not_equal[0][0]']      
                                                                                                  
 dropout (Dropout)              (None, 172, 45)      0           ['word_emb[0][0]']               
                                                                                                  
 dropout_1 (Dropout)            (None, 1322, 45)     0           ['rest_emb[0][0]']               
                                                                                                  
 tf.expand_dims (TFOpLambda)    (None, 172, 1)       0           ['tf.cast[0][0]']                
                                                                                                  
 lambda (Lambda)                (None, 172, 1322)    0           ['dropout[0][0]',                
                                                                  'dropout_1[0][0]']              
                                                                                                  
 tf.tile (TFOpLambda)           (None, 172, 1322)    0           ['tf.expand_dims[0][0]']         
                                                                                                  
 lambda_1 (Lambda)              (None, 172, 1322)    0           ['lambda[0][0]',                 
                                                                  'tf.tile[0][0]']                
                                                                                                  
 dotprod (Activation)           (None, 172, 1322)    0           ['lambda_1[0][0]']               
                                                                                                  
 sum (Lambda)                   (None, 1322)         0           ['dotprod[0][0]']                
                                                                                                  
 normalization (Normalization)  (None, 1322)         2645        ['sum[0][0]']                    
                                                                                                  
 out (Activation)               (None, 1322)         0           ['normalization[0][0]']          
                                                                                                  
==================================================================================================
Total params: 459,395
Trainable params: 456,750
Non-trainable params: 2,645
__________________________________________________________________________________________________
…
