…
 Layer (type)                   Output Shape         Param #     Connected to                     
==================================================================================================
 input_1 (InputLayer)           [(None, 200)]        0           []                               
                                                                                                  
 input_2 (InputLayer)           [(None, 1985)]       0           []                               
                                                                                                  
 embedding (Embedding)          (None, 200, 64)      772352      ['input_1[0][0]']                
                                                                                                  
 in_rsts (Embedding)            (None, 1985, 64)     127040      ['input_2[0][0]']                
                                                                                                  
 tf.math.not_equal (TFOpLambda)  (None, 200)         0           ['input_1[0][0]']                
                                                                                                  
 word_emb (Lambda)              (None, 200, 64)      0           ['embedding[0][0]']              
                                                                                                  
 rest_emb (Lambda)              (None, 1985, 64)     0           ['in_rsts[0][0]']                
                                                                                                  
 tf.cast (TFOpLambda)           (None, 200)          0           ['tf.math.not_equal[0][0]']      
                                                                                                  
 dropout (Dropout)              (None, 200, 64)      0           ['word_emb[0][0]']               
                                                                                                  
 dropout_1 (Dropout)            (None, 1985, 64)     0           ['rest_emb[0][0]']               
                                                                                                  
 tf.expand_dims (TFOpLambda)    (None, 200, 1)       0           ['tf.cast[0][0]']                
                                                                                                  
 lambda (Lambda)                (None, 200, 1985)    0           ['dropout[0][0]',                
                                                                  'dropout_1[0][0]']              
                                                                                                  
 tf.tile (TFOpLambda)           (None, 200, 1985)    0           ['tf.expand_dims[0][0]']         
                                                                                                  
 lambda_1 (Lambda)              (None, 200, 1985)    0           ['lambda[0][0]',                 
                                                                  'tf.tile[0][0]']                
                                                                                                  
 dotprod (Activation)           (None, 200, 1985)    0           ['lambda_1[0][0]']               
                                                                                                  
 sum (Lambda)                   (None, 1985)         0           ['dotprod[0][0]']                
                                                                                                  
 normalization (Normalization)  (None, 1985)         3971        ['sum[0][0]']                    
                                                                                                  
 out (Activation)               (None, 1985)         0           ['normalization[0][0]']          
                                                                                                  
==================================================================================================
Total params: 903,363
Trainable params: 899,392
Non-trainable params: 3,971
__________________________________________________________________________________________________
…
 Layer (type)                   Output Shape         Param #     Connected to                     
==================================================================================================
 input_1 (InputLayer)           [(None, 200)]        0           []                               
                                                                                                  
 input_2 (InputLayer)           [(None, 1985)]       0           []                               
                                                                                                  
 embedding (Embedding)          (None, 200, 45)      543060      ['input_1[0][0]']                
                                                                                                  
 in_rsts (Embedding)            (None, 1985, 45)     89325       ['input_2[0][0]']                
                                                                                                  
 tf.math.not_equal (TFOpLambda)  (None, 200)         0           ['input_1[0][0]']                
                                                                                                  
 word_emb (Lambda)              (None, 200, 45)      0           ['embedding[0][0]']              
                                                                                                  
 rest_emb (Lambda)              (None, 1985, 45)     0           ['in_rsts[0][0]']                
                                                                                                  
 tf.cast (TFOpLambda)           (None, 200)          0           ['tf.math.not_equal[0][0]']      
                                                                                                  
 dropout (Dropout)              (None, 200, 45)      0           ['word_emb[0][0]']               
                                                                                                  
 dropout_1 (Dropout)            (None, 1985, 45)     0           ['rest_emb[0][0]']               
                                                                                                  
 tf.expand_dims (TFOpLambda)    (None, 200, 1)       0           ['tf.cast[0][0]']                
                                                                                                  
 lambda (Lambda)                (None, 200, 1985)    0           ['dropout[0][0]',                
                                                                  'dropout_1[0][0]']              
                                                                                                  
 tf.tile (TFOpLambda)           (None, 200, 1985)    0           ['tf.expand_dims[0][0]']         
                                                                                                  
 lambda_1 (Lambda)              (None, 200, 1985)    0           ['lambda[0][0]',                 
                                                                  'tf.tile[0][0]']                
                                                                                                  
 dotprod (Activation)           (None, 200, 1985)    0           ['lambda_1[0][0]']               
                                                                                                  
 sum (Lambda)                   (None, 1985)         0           ['dotprod[0][0]']                
                                                                                                  
 normalization (Normalization)  (None, 1985)         3971        ['sum[0][0]']                    
                                                                                                  
 out (Activation)               (None, 1985)         0           ['normalization[0][0]']          
                                                                                                  
==================================================================================================
Total params: 636,356
Trainable params: 632,385
Non-trainable params: 3,971
__________________________________________________________________________________________________
…
