…
 Layer (type)                   Output Shape         Param #     Connected to                     
==================================================================================================
 input_1 (InputLayer)           [(None, 101)]        0           []                               
                                                                                                  
 input_2 (InputLayer)           [(None, 706)]        0           []                               
                                                                                                  
 embedding (Embedding)          (None, 101, 384)     1234560     ['input_1[0][0]']                
                                                                                                  
 in_rsts (Embedding)            (None, 706, 384)     271104      ['input_2[0][0]']                
                                                                                                  
 dense (Dense)                  (None, 101, 256)     98560       ['embedding[0][0]']              
                                                                                                  
 dense_2 (Dense)                (None, 706, 256)     98560       ['in_rsts[0][0]']                
                                                                                                  
 tf.math.not_equal (TFOpLambda)  (None, 101)         0           ['input_1[0][0]']                
                                                                                                  
 dense_1 (Dense)                (None, 101, 128)     32896       ['dense[0][0]']                  
                                                                                                  
 dense_3 (Dense)                (None, 706, 128)     32896       ['dense_2[0][0]']                
                                                                                                  
 tf.cast (TFOpLambda)           (None, 101)          0           ['tf.math.not_equal[0][0]']      
                                                                                                  
 word_emb (Lambda)              (None, 101, 128)     0           ['dense_1[0][0]']                
                                                                                                  
 rest_emb (Lambda)              (None, 706, 128)     0           ['dense_3[0][0]']                
                                                                                                  
 tf.expand_dims (TFOpLambda)    (None, 101, 1)       0           ['tf.cast[0][0]']                
                                                                                                  
 lambda (Lambda)                (None, 101, 706)     0           ['word_emb[0][0]',               
                                                                  'rest_emb[0][0]']               
                                                                                                  
 tf.tile (TFOpLambda)           (None, 101, 706)     0           ['tf.expand_dims[0][0]']         
                                                                                                  
 lambda_1 (Lambda)              (None, 101, 706)     0           ['lambda[0][0]',                 
                                                                  'tf.tile[0][0]']                
                                                                                                  
 dotprod (Activation)           (None, 101, 706)     0           ['lambda_1[0][0]']               
                                                                                                  
 dropout (Dropout)              (None, 101, 706)     0           ['dotprod[0][0]']                
                                                                                                  
 sum (Lambda)                   (None, 706)          0           ['dropout[0][0]']                
                                                                                                  
 out (Activation)               (None, 706)          0           ['sum[0][0]']                    
                                                                                                  
==================================================================================================
Total params: 1,768,576
Trainable params: 1,768,576
Non-trainable params: 0
__________________________________________________________________________________________________
…
