…
 Layer (type)                   Output Shape         Param #     Connected to                     
==================================================================================================
 input_1 (InputLayer)           [(None, 101)]        0           []                               
                                                                                                  
 input_2 (InputLayer)           [(None, 706)]        0           []                               
                                                                                                  
 embedding (Embedding)          (None, 101, 45)      144675      ['input_1[0][0]']                
                                                                                                  
 in_rsts (Embedding)            (None, 706, 45)      31770       ['input_2[0][0]']                
                                                                                                  
 tf.math.not_equal (TFOpLambda)  (None, 101)         0           ['input_1[0][0]']                
                                                                                                  
 word_emb (Lambda)              (None, 101, 45)      0           ['embedding[0][0]']              
                                                                                                  
 rest_emb (Lambda)              (None, 706, 45)      0           ['in_rsts[0][0]']                
                                                                                                  
 tf.cast (TFOpLambda)           (None, 101)          0           ['tf.math.not_equal[0][0]']      
                                                                                                  
 dropout (Dropout)              (None, 101, 45)      0           ['word_emb[0][0]']               
                                                                                                  
 dropout_1 (Dropout)            (None, 706, 45)      0           ['rest_emb[0][0]']               
                                                                                                  
 tf.expand_dims (TFOpLambda)    (None, 101, 1)       0           ['tf.cast[0][0]']                
                                                                                                  
 lambda (Lambda)                (None, 101, 706)     0           ['dropout[0][0]',                
                                                                  'dropout_1[0][0]']              
                                                                                                  
 tf.tile (TFOpLambda)           (None, 101, 706)     0           ['tf.expand_dims[0][0]']         
                                                                                                  
 lambda_1 (Lambda)              (None, 101, 706)     0           ['lambda[0][0]',                 
                                                                  'tf.tile[0][0]']                
                                                                                                  
 dotprod (Activation)           (None, 101, 706)     0           ['lambda_1[0][0]']               
                                                                                                  
 sum (Lambda)                   (None, 706)          0           ['dotprod[0][0]']                
                                                                                                  
 normalization (Normalization)  (None, 706)          1413        ['sum[0][0]']                    
                                                                                                  
 out (Activation)               (None, 706)          0           ['normalization[0][0]']          
                                                                                                  
==================================================================================================
Total params: 177,858
Trainable params: 176,445
Non-trainable params: 1,413
__________________________________________________________________________________________________
…
