…
 Layer (type)                   Output Shape         Param #     Connected to                     
==================================================================================================
 input_1 (InputLayer)           [(None, 162)]        0           []                               
                                                                                                  
 input_2 (InputLayer)           [(None, 149)]        0           []                               
                                                                                                  
 embedding (Embedding)          (None, 162, 64)      154496      ['input_1[0][0]']                
                                                                                                  
 in_rsts (Embedding)            (None, 149, 64)      9536        ['input_2[0][0]']                
                                                                                                  
 tf.math.not_equal (TFOpLambda)  (None, 162)         0           ['input_1[0][0]']                
                                                                                                  
 word_emb (Lambda)              (None, 162, 64)      0           ['embedding[0][0]']              
                                                                                                  
 rest_emb (Lambda)              (None, 149, 64)      0           ['in_rsts[0][0]']                
                                                                                                  
 tf.cast (TFOpLambda)           (None, 162)          0           ['tf.math.not_equal[0][0]']      
                                                                                                  
 dropout (Dropout)              (None, 162, 64)      0           ['word_emb[0][0]']               
                                                                                                  
 dropout_1 (Dropout)            (None, 149, 64)      0           ['rest_emb[0][0]']               
                                                                                                  
 tf.expand_dims (TFOpLambda)    (None, 162, 1)       0           ['tf.cast[0][0]']                
                                                                                                  
 lambda (Lambda)                (None, 162, 149)     0           ['dropout[0][0]',                
                                                                  'dropout_1[0][0]']              
                                                                                                  
 tf.tile (TFOpLambda)           (None, 162, 149)     0           ['tf.expand_dims[0][0]']         
                                                                                                  
 lambda_1 (Lambda)              (None, 162, 149)     0           ['lambda[0][0]',                 
                                                                  'tf.tile[0][0]']                
                                                                                                  
 dotprod (Activation)           (None, 162, 149)     0           ['lambda_1[0][0]']               
                                                                                                  
 sum (Lambda)                   (None, 149)          0           ['dotprod[0][0]']                
                                                                                                  
 normalization (Normalization)  (None, 149)          299         ['sum[0][0]']                    
                                                                                                  
 out (Activation)               (None, 149)          0           ['normalization[0][0]']          
                                                                                                  
==================================================================================================
Total params: 164,331
Trainable params: 164,032
Non-trainable params: 299
__________________________________________________________________________________________________
…
