…
 Layer (type)                   Output Shape         Param #     Connected to                     
==================================================================================================
 input_1 (InputLayer)           [(None, 112)]        0           []                               
                                                                                                  
 input_2 (InputLayer)           [(None, 134)]        0           []                               
                                                                                                  
 embedding (Embedding)          (None, 112, 45)      217620      ['input_1[0][0]']                
                                                                                                  
 in_rsts (Embedding)            (None, 134, 45)      6030        ['input_2[0][0]']                
                                                                                                  
 tf.math.not_equal (TFOpLambda)  (None, 112)         0           ['input_1[0][0]']                
                                                                                                  
 word_emb (Lambda)              (None, 112, 45)      0           ['embedding[0][0]']              
                                                                                                  
 rest_emb (Lambda)              (None, 134, 45)      0           ['in_rsts[0][0]']                
                                                                                                  
 tf.cast (TFOpLambda)           (None, 112)          0           ['tf.math.not_equal[0][0]']      
                                                                                                  
 dropout (Dropout)              (None, 112, 45)      0           ['word_emb[0][0]']               
                                                                                                  
 dropout_1 (Dropout)            (None, 134, 45)      0           ['rest_emb[0][0]']               
                                                                                                  
 tf.expand_dims (TFOpLambda)    (None, 112, 1)       0           ['tf.cast[0][0]']                
                                                                                                  
 lambda (Lambda)                (None, 112, 134)     0           ['dropout[0][0]',                
                                                                  'dropout_1[0][0]']              
                                                                                                  
 tf.tile (TFOpLambda)           (None, 112, 134)     0           ['tf.expand_dims[0][0]']         
                                                                                                  
 lambda_1 (Lambda)              (None, 112, 134)     0           ['lambda[0][0]',                 
                                                                  'tf.tile[0][0]']                
                                                                                                  
 dotprod (Activation)           (None, 112, 134)     0           ['lambda_1[0][0]']               
                                                                                                  
 sum (Lambda)                   (None, 134)          0           ['dotprod[0][0]']                
                                                                                                  
 normalization (Normalization)  (None, 134)          269         ['sum[0][0]']                    
                                                                                                  
 out (Activation)               (None, 134)          0           ['normalization[0][0]']          
                                                                                                  
==================================================================================================
Total params: 223,919
Trainable params: 223,650
Non-trainable params: 269
__________________________________________________________________________________________________
…
