…
 Layer (type)                   Output Shape         Param #     Connected to                     
==================================================================================================
 input_1 (InputLayer)           [(None, 104)]        0           []                               
                                                                                                  
 input_2 (InputLayer)           [(None, 63)]         0           []                               
                                                                                                  
 embedding (Embedding)          (None, 104, 384)     1105152     ['input_1[0][0]']                
                                                                                                  
 in_rsts (Embedding)            (None, 63, 384)      24192       ['input_2[0][0]']                
                                                                                                  
 dense (Dense)                  (None, 104, 256)     98560       ['embedding[0][0]']              
                                                                                                  
 dense_2 (Dense)                (None, 63, 256)      98560       ['in_rsts[0][0]']                
                                                                                                  
 tf.math.not_equal (TFOpLambda)  (None, 104)         0           ['input_1[0][0]']                
                                                                                                  
 dense_1 (Dense)                (None, 104, 128)     32896       ['dense[0][0]']                  
                                                                                                  
 dense_3 (Dense)                (None, 63, 128)      32896       ['dense_2[0][0]']                
                                                                                                  
 tf.cast (TFOpLambda)           (None, 104)          0           ['tf.math.not_equal[0][0]']      
                                                                                                  
 word_emb (Lambda)              (None, 104, 128)     0           ['dense_1[0][0]']                
                                                                                                  
 rest_emb (Lambda)              (None, 63, 128)      0           ['dense_3[0][0]']                
                                                                                                  
 tf.expand_dims (TFOpLambda)    (None, 104, 1)       0           ['tf.cast[0][0]']                
                                                                                                  
 lambda (Lambda)                (None, 104, 63)      0           ['word_emb[0][0]',               
                                                                  'rest_emb[0][0]']               
                                                                                                  
 tf.tile (TFOpLambda)           (None, 104, 63)      0           ['tf.expand_dims[0][0]']         
                                                                                                  
 lambda_1 (Lambda)              (None, 104, 63)      0           ['lambda[0][0]',                 
                                                                  'tf.tile[0][0]']                
                                                                                                  
 dotprod (Activation)           (None, 104, 63)      0           ['lambda_1[0][0]']               
                                                                                                  
 dropout (Dropout)              (None, 104, 63)      0           ['dotprod[0][0]']                
                                                                                                  
 sum (Lambda)                   (None, 63)           0           ['dropout[0][0]']                
                                                                                                  
 out (Activation)               (None, 63)           0           ['sum[0][0]']                    
                                                                                                  
==================================================================================================
Total params: 1,392,256
Trainable params: 1,392,256
Non-trainable params: 0
__________________________________________________________________________________________________
…
