…
 Layer (type)                   Output Shape         Param #     Connected to                     
==================================================================================================
 input_1 (InputLayer)           [(None, 178)]        0           []                               
                                                                                                  
 input_2 (InputLayer)           [(None, 3415)]       0           []                               
                                                                                                  
 embedding (Embedding)          (None, 178, 45)      648990      ['input_1[0][0]']                
                                                                                                  
 in_rsts (Embedding)            (None, 3415, 45)     153675      ['input_2[0][0]']                
                                                                                                  
 tf.math.not_equal (TFOpLambda)  (None, 178)         0           ['input_1[0][0]']                
                                                                                                  
 word_emb (Lambda)              (None, 178, 45)      0           ['embedding[0][0]']              
                                                                                                  
 rest_emb (Lambda)              (None, 3415, 45)     0           ['in_rsts[0][0]']                
                                                                                                  
 tf.cast (TFOpLambda)           (None, 178)          0           ['tf.math.not_equal[0][0]']      
                                                                                                  
 dropout (Dropout)              (None, 178, 45)      0           ['word_emb[0][0]']               
                                                                                                  
 dropout_1 (Dropout)            (None, 3415, 45)     0           ['rest_emb[0][0]']               
                                                                                                  
 tf.expand_dims (TFOpLambda)    (None, 178, 1)       0           ['tf.cast[0][0]']                
                                                                                                  
 lambda (Lambda)                (None, 178, 3415)    0           ['dropout[0][0]',                
                                                                  'dropout_1[0][0]']              
                                                                                                  
 tf.tile (TFOpLambda)           (None, 178, 3415)    0           ['tf.expand_dims[0][0]']         
                                                                                                  
 lambda_1 (Lambda)              (None, 178, 3415)    0           ['lambda[0][0]',                 
                                                                  'tf.tile[0][0]']                
                                                                                                  
 dotprod (Activation)           (None, 178, 3415)    0           ['lambda_1[0][0]']               
                                                                                                  
 sum (Lambda)                   (None, 3415)         0           ['dotprod[0][0]']                
                                                                                                  
 normalization (Normalization)  (None, 3415)         6831        ['sum[0][0]']                    
                                                                                                  
 out (Activation)               (None, 3415)         0           ['normalization[0][0]']          
                                                                                                  
==================================================================================================
Total params: 809,496
Trainable params: 802,665
Non-trainable params: 6,831
__________________________________________________________________________________________________
…
