…
 Layer (type)                   Output Shape         Param #     Connected to                     
==================================================================================================
 input_1 (InputLayer)           [(None, 179)]        0           []                               
                                                                                                  
 input_2 (InputLayer)           [(None, 1634)]       0           []                               
                                                                                                  
 embedding (Embedding)          (None, 179, 384)     4201728     ['input_1[0][0]']                
                                                                                                  
 in_rsts (Embedding)            (None, 1634, 384)    627456      ['input_2[0][0]']                
                                                                                                  
 dense (Dense)                  (None, 179, 256)     98560       ['embedding[0][0]']              
                                                                                                  
 dense_2 (Dense)                (None, 1634, 256)    98560       ['in_rsts[0][0]']                
                                                                                                  
 tf.math.not_equal (TFOpLambda)  (None, 179)         0           ['input_1[0][0]']                
                                                                                                  
 dense_1 (Dense)                (None, 179, 128)     32896       ['dense[0][0]']                  
                                                                                                  
 dense_3 (Dense)                (None, 1634, 128)    32896       ['dense_2[0][0]']                
                                                                                                  
 tf.cast (TFOpLambda)           (None, 179)          0           ['tf.math.not_equal[0][0]']      
                                                                                                  
 word_emb (Lambda)              (None, 179, 128)     0           ['dense_1[0][0]']                
                                                                                                  
 rest_emb (Lambda)              (None, 1634, 128)    0           ['dense_3[0][0]']                
                                                                                                  
 tf.expand_dims (TFOpLambda)    (None, 179, 1)       0           ['tf.cast[0][0]']                
                                                                                                  
 lambda (Lambda)                (None, 179, 1634)    0           ['word_emb[0][0]',               
                                                                  'rest_emb[0][0]']               
                                                                                                  
 tf.tile (TFOpLambda)           (None, 179, 1634)    0           ['tf.expand_dims[0][0]']         
                                                                                                  
 lambda_1 (Lambda)              (None, 179, 1634)    0           ['lambda[0][0]',                 
                                                                  'tf.tile[0][0]']                
                                                                                                  
 dotprod (Activation)           (None, 179, 1634)    0           ['lambda_1[0][0]']               
                                                                                                  
 dropout (Dropout)              (None, 179, 1634)    0           ['dotprod[0][0]']                
                                                                                                  
 sum (Lambda)                   (None, 1634)         0           ['dropout[0][0]']                
                                                                                                  
 out (Activation)               (None, 1634)         0           ['sum[0][0]']                    
                                                                                                  
==================================================================================================
Total params: 5,092,096
Trainable params: 5,092,096
Non-trainable params: 0
__________________________________________________________________________________________________
…
