…
 Layer (type)                   Output Shape         Param #     Connected to                     
==================================================================================================
 input_1 (InputLayer)           [(None, 179)]        0           []                               
                                                                                                  
 input_2 (InputLayer)           [(None, 1634)]       0           []                               
                                                                                                  
 embedding (Embedding)          (None, 179, 64)      700288      ['input_1[0][0]']                
                                                                                                  
 in_rsts (Embedding)            (None, 1634, 64)     104576      ['input_2[0][0]']                
                                                                                                  
 tf.math.not_equal (TFOpLambda)  (None, 179)         0           ['input_1[0][0]']                
                                                                                                  
 word_emb (Lambda)              (None, 179, 64)      0           ['embedding[0][0]']              
                                                                                                  
 rest_emb (Lambda)              (None, 1634, 64)     0           ['in_rsts[0][0]']                
                                                                                                  
 tf.cast (TFOpLambda)           (None, 179)          0           ['tf.math.not_equal[0][0]']      
                                                                                                  
 dropout (Dropout)              (None, 179, 64)      0           ['word_emb[0][0]']               
                                                                                                  
 dropout_1 (Dropout)            (None, 1634, 64)     0           ['rest_emb[0][0]']               
                                                                                                  
 tf.expand_dims (TFOpLambda)    (None, 179, 1)       0           ['tf.cast[0][0]']                
                                                                                                  
 lambda (Lambda)                (None, 179, 1634)    0           ['dropout[0][0]',                
                                                                  'dropout_1[0][0]']              
                                                                                                  
 tf.tile (TFOpLambda)           (None, 179, 1634)    0           ['tf.expand_dims[0][0]']         
                                                                                                  
 lambda_1 (Lambda)              (None, 179, 1634)    0           ['lambda[0][0]',                 
                                                                  'tf.tile[0][0]']                
                                                                                                  
 dotprod (Activation)           (None, 179, 1634)    0           ['lambda_1[0][0]']               
                                                                                                  
 sum (Lambda)                   (None, 1634)         0           ['dotprod[0][0]']                
                                                                                                  
 normalization (Normalization)  (None, 1634)         3269        ['sum[0][0]']                    
                                                                                                  
 out (Activation)               (None, 1634)         0           ['normalization[0][0]']          
                                                                                                  
==================================================================================================
Total params: 808,133
Trainable params: 804,864
Non-trainable params: 3,269
__________________________________________________________________________________________________
…
 Layer (type)                   Output Shape         Param #     Connected to                     
==================================================================================================
 input_1 (InputLayer)           [(None, 179)]        0           []                               
                                                                                                  
 input_2 (InputLayer)           [(None, 1634)]       0           []                               
                                                                                                  
 embedding (Embedding)          (None, 179, 45)      492390      ['input_1[0][0]']                
                                                                                                  
 in_rsts (Embedding)            (None, 1634, 45)     73530       ['input_2[0][0]']                
                                                                                                  
 tf.math.not_equal (TFOpLambda)  (None, 179)         0           ['input_1[0][0]']                
                                                                                                  
 word_emb (Lambda)              (None, 179, 45)      0           ['embedding[0][0]']              
                                                                                                  
 rest_emb (Lambda)              (None, 1634, 45)     0           ['in_rsts[0][0]']                
                                                                                                  
 tf.cast (TFOpLambda)           (None, 179)          0           ['tf.math.not_equal[0][0]']      
                                                                                                  
 dropout (Dropout)              (None, 179, 45)      0           ['word_emb[0][0]']               
                                                                                                  
 dropout_1 (Dropout)            (None, 1634, 45)     0           ['rest_emb[0][0]']               
                                                                                                  
 tf.expand_dims (TFOpLambda)    (None, 179, 1)       0           ['tf.cast[0][0]']                
                                                                                                  
 lambda (Lambda)                (None, 179, 1634)    0           ['dropout[0][0]',                
                                                                  'dropout_1[0][0]']              
                                                                                                  
 tf.tile (TFOpLambda)           (None, 179, 1634)    0           ['tf.expand_dims[0][0]']         
                                                                                                  
 lambda_1 (Lambda)              (None, 179, 1634)    0           ['lambda[0][0]',                 
                                                                  'tf.tile[0][0]']                
                                                                                                  
 dotprod (Activation)           (None, 179, 1634)    0           ['lambda_1[0][0]']               
                                                                                                  
 sum (Lambda)                   (None, 1634)         0           ['dotprod[0][0]']                
                                                                                                  
 normalization (Normalization)  (None, 1634)         3269        ['sum[0][0]']                    
                                                                                                  
 out (Activation)               (None, 1634)         0           ['normalization[0][0]']          
                                                                                                  
==================================================================================================
Total params: 569,189
Trainable params: 565,920
Non-trainable params: 3,269
__________________________________________________________________________________________________
…
