…
 Layer (type)                   Output Shape         Param #     Connected to                     
==================================================================================================
 input_1 (InputLayer)           [(None, 104)]        0           []                               
                                                                                                  
 input_2 (InputLayer)           [(None, 75)]         0           []                               
                                                                                                  
 embedding (Embedding)          (None, 104, 45)      174690      ['input_1[0][0]']                
                                                                                                  
 in_rsts (Embedding)            (None, 75, 45)       3375        ['input_2[0][0]']                
                                                                                                  
 tf.math.not_equal (TFOpLambda)  (None, 104)         0           ['input_1[0][0]']                
                                                                                                  
 word_emb (Lambda)              (None, 104, 45)      0           ['embedding[0][0]']              
                                                                                                  
 rest_emb (Lambda)              (None, 75, 45)       0           ['in_rsts[0][0]']                
                                                                                                  
 tf.cast (TFOpLambda)           (None, 104)          0           ['tf.math.not_equal[0][0]']      
                                                                                                  
 dropout (Dropout)              (None, 104, 45)      0           ['word_emb[0][0]']               
                                                                                                  
 dropout_1 (Dropout)            (None, 75, 45)       0           ['rest_emb[0][0]']               
                                                                                                  
 tf.expand_dims (TFOpLambda)    (None, 104, 1)       0           ['tf.cast[0][0]']                
                                                                                                  
 lambda (Lambda)                (None, 104, 75)      0           ['dropout[0][0]',                
                                                                  'dropout_1[0][0]']              
                                                                                                  
 tf.tile (TFOpLambda)           (None, 104, 75)      0           ['tf.expand_dims[0][0]']         
                                                                                                  
 lambda_1 (Lambda)              (None, 104, 75)      0           ['lambda[0][0]',                 
                                                                  'tf.tile[0][0]']                
                                                                                                  
 dotprod (Activation)           (None, 104, 75)      0           ['lambda_1[0][0]']               
                                                                                                  
 sum (Lambda)                   (None, 75)           0           ['dotprod[0][0]']                
                                                                                                  
 normalization (Normalization)  (None, 75)           151         ['sum[0][0]']                    
                                                                                                  
 out (Activation)               (None, 75)           0           ['normalization[0][0]']          
                                                                                                  
==================================================================================================
Total params: 178,216
Trainable params: 178,065
Non-trainable params: 151
__________________________________________________________________________________________________
…
