[93m[WARNING] Model folder already exists...[0m
[92m[INFO] Loading existing model...[0m
[92m[INFO] Model already trained![0m
[92m[INFO] Loading w2v...[0m
Model: "sequential"
_________________________________________________________________
Layer (type)                 Output Shape              Param #   
=================================================================
embedding (Embedding)        (None, None, 300)         43245900  
_________________________________________________________________
lstm (LSTM)                  (None, 256)               570368    
_________________________________________________________________
dense (Dense)                (None, 128)               32896     
_________________________________________________________________
dense_1 (Dense)              (None, 64)                8256      
_________________________________________________________________
dense_2 (Dense)              (None, 32)                2080      
_________________________________________________________________
dense_3 (Dense)              (None, 16)                528       
_________________________________________________________________
dense_4 (Dense)              (None, 1)                 17        
=================================================================
Total params: 43,860,045
Trainable params: 614,145
Non-trainable params: 43,245,900
_________________________________________________________________
None
[92m[INFO] Not saving the model...[0m
Epoch 1/1000
20284/20284 - 3615s - loss: 37.4579 - mean_absolute_error: 4.6665 - val_loss: 31.4878 - val_mean_absolute_error: 4.4828
…
