[93m[WARNING] Model folder already exists...[0m
[92m[INFO] Loading existing model...[0m
[92m[INFO] Model already trained![0m
[92m[INFO] Loading w2v...[0m
Model: "sequential"
_________________________________________________________________
Layer (type)                 Output Shape              Param #   
=================================================================
embedding (Embedding)        (None, None, 300)         43245900  
_________________________________________________________________
lstm (LSTM)                  (None, 256)               570368    
_________________________________________________________________
dense (Dense)                (None, 128)               32896     
_________________________________________________________________
dense_1 (Dense)              (None, 64)                8256      
_________________________________________________________________
dense_2 (Dense)              (None, 32)                2080      
_________________________________________________________________
dense_3 (Dense)              (None, 16)                528       
_________________________________________________________________
dense_4 (Dense)              (None, 1)                 17        
=================================================================
Total params: 43,860,045
Trainable params: 614,145
Non-trainable params: 43,245,900
_________________________________________________________________
None
[92m[INFO] Not saving the model...[0m
Epoch 1/1000
[93m[WARNING] Model folder already exists...[0m
[92m[INFO] Loading existing model...[0m
[92m[INFO] Model already trained![0m
[93m[WARNING] Model folder already exists...[0m
[92m[INFO] Loading w2v...[0m
Model: "sequential"
_________________________________________________________________
Layer (type)                 Output Shape              Param #   
=================================================================
embedding (Embedding)        (None, None, 300)         43245900  
_________________________________________________________________
lstm (LSTM)                  (None, 256)               570368    
_________________________________________________________________
dense (Dense)                (None, 128)               32896     
_________________________________________________________________
dense_1 (Dense)              (None, 64)                8256      
_________________________________________________________________
dense_2 (Dense)              (None, 32)                2080      
_________________________________________________________________
dense_3 (Dense)              (None, 16)                528       
_________________________________________________________________
dense_4 (Dense)              (None, 1)                 17        
=================================================================
Total params: 43,860,045
Trainable params: 614,145
Non-trainable params: 43,245,900
_________________________________________________________________
None
Epoch 1/1000
5071/5071 - 890s - loss: 85.2979 - mean_absolute_error: 6.1158 - val_loss: 35.1165 - val_mean_absolute_error: 4.6420
Epoch 2/1000
5071/5071 - 904s - loss: 33.2076 - mean_absolute_error: 4.4808 - val_loss: 32.5302 - val_mean_absolute_error: 4.4742
…
